==========================================================================================
Layer (type:depth-idx)                   Output Shape              Param #
==========================================================================================
├─Conv2d: 1-1                            [-1, 1, 24, 24]           76
├─BatchNorm2d: 1-2                       [-1, 1, 24, 24]           2
├─MaxPool2d: 1-3                         [-1, 1, 12, 12]           --
├─ReLU: 1-4                              [-1, 1, 12, 12]           --
├─Conv2d: 1-5                            [-1, 50, 8, 8]            1,300
├─BatchNorm2d: 1-6                       [-1, 50, 8, 8]            100
├─Dropout2d: 1-7                         [-1, 50, 8, 8]            --
├─MaxPool2d: 1-8                         [-1, 50, 4, 4]            --
├─ReLU: 1-9                              [-1, 50, 4, 4]            --
==========================================================================================
Total params: 1,478
Trainable params: 1,478
Non-trainable params: 0
Total mult-adds (M): 0.12
==========================================================================================
Input size (MB): 0.01
Forward/backward pass size (MB): 0.06
Params size (MB): 0.01
Estimated Total Size (MB): 0.07
==========================================================================================
…
