…
├─Dropout2d: 1-7                         --
├─MaxPool2d: 1-8                         --
├─ReLU: 1-9                              --
=================================================================
Total params: 425,110
Trainable params: 425,110
Non-trainable params: 0
=================================================================
==========================================================================================
Layer (type:depth-idx)                   Output Shape              Param #
==========================================================================================
├─Conv2d: 1-1                            [-1, 320, 24, 24]         24,320
├─BatchNorm2d: 1-2                       [-1, 320, 24, 24]         640
├─MaxPool2d: 1-3                         [-1, 320, 12, 12]         --
├─ReLU: 1-4                              [-1, 320, 12, 12]         --
├─Conv2d: 1-5                            [-1, 50, 8, 8]            400,050
├─BatchNorm2d: 1-6                       [-1, 50, 8, 8]            100
├─Dropout2d: 1-7                         [-1, 50, 8, 8]            --
├─MaxPool2d: 1-8                         [-1, 50, 4, 4]            --
├─ReLU: 1-9                              [-1, 50, 4, 4]            --
==========================================================================================
Total params: 425,110
Trainable params: 425,110
Non-trainable params: 0
Total mult-adds (M): 39.42
==========================================================================================
Input size (MB): 0.01
Forward/backward pass size (MB): 2.86
Params size (MB): 1.62
Estimated Total Size (MB): 4.49
==========================================================================================
…
